artifacts/cnn_model.pth (torch, 494373 bytes, 10 tensors)

conv1.weight f4 [32, 3, 3, 3]
00000000: 3d49 483e 1636 25bd 9679 7b3e b425 193e
00000010: 7f77 413e 1dee 783d 84b4 ca3d 9ffc 963d
00000020: 4e56 f13d 8edd cc3a d88e 00be 438a 04ba
00000030: 7fc7 52bd 3cae 0dbe 0ac9 46be 227e 043e
00000040: 6ea1 35be 226f 76be 1e45 0dbd 1844 eabd
00000050: 8eab f23c 46f6 efbd 6b76 a13d 414b 83be
00000060: bcc1 853e d44f 7f3d c69f 20be e907 093e
00000070: 7983 033e a064 0e3e 3314 dd3b ed6d 94bd
00000080: 370b c3bc 25d1 ebbd 786c 7abd 3a1d 683d
00000090: c200 243e 64b4 a53d 681d 3b3e a275 2b3b
000000a0: 13b1 b53d 6ec1 1abe 3680 98be 1883 76be
000000b0: 13cf 80be e617 743e 7b99 753e ed6c 323e
000000c0: 90c4 a73d 1fe0 0e3d 07db 163e 94d4 79be
000000d0: d13b 21be 2d56 8abe 6708 2b3e 3cbd ec3d
000000e0: 2363 ee3d db80 27be c37a 173e 4c7d 53be
000000f0: 4a8a 8bbd 7921 43be 2d24 8d3e 3102 073e
00000100: 018c 9c3e dc62 59be 177f b5be 70ae 77be
00000110: 390d a2be 0613 643e 69b2 b63d b979 ab3e
00000120: 9c22 90bd 0df9 08bd 15c6 033e 1c0b 2abe
00000130: af72 b83d f853 0cbe bfd1 793e 1d18 02be
00000140: bda4 943c 1943 4b3e cddc 933d 617f 85bd
00000150: 704f 7e3e 9f6a 383e 50f6 7cbe 0fc6 bf3c
00000160: dd76 ad3e 770e a7bd cdc4 e63c 6001 99be
00000170: 27bf 81be 92e6 2c3e d9f3 cfbd 122c aebe
00000180: 02f7 0c3e 6b74 86bd 98f1 79be 68d8 213d
00000190: 7213 40be 3802 23be 7252 b13e ee89 2b3d
000001a0: b200 13bd 80e5 b338 e91d 8d3c 98b9 1bbd
000001b0: d9b3 fa3d 4ca4 59be 99c2 58bd 03b7 b2bd
000001c0: 5c33 c8bd 8b26 01be 7db2 af3d 22f8 3dbe
000001d0: 43a9 25be 64ef 08bc 1801 63bd 2e11 b8bd
000001e0: 6b2d 843e afd7 2bbc 3a4f 6d3e 6f4f 4d3e
000001f0: 3fdf e5bd 7ef1 593e 6295 cf3c 1564 bdbd
00000200: 299c f0bd da90 f0bd 22ac 7d3d 35c4 4b3b
00000210: cb43 373e dd87 05be 53dc 513e 466d 9ebe
00000220: 3439 8dbe 9dfd 05bc 93fa e73d 2ee3 b63e
00000230: 6e70 b33e 26f3 8e3d 8d43 663e b340 ffbd
00000240: c242 5abe fa60 bcbe 0fcc 7f3d 0ee0 95be
00000250: 6351 413e 9618 f13d e810 223d 38bf 9cbd
00000260: 6510 8d3c f3a2 01bd 27bb 5bbd 719f e2bd
00000270: a088 163d f071 173e 59f2 ae3d edb5 233e
00000280: 5b95 943d 538c 4cbe 73e4 f2bd fd20 263d
00000290: f0a9 ba3d dad9 bcbd 970c 08bc 8cf1 51bd
000002a0: e9d2 5abe 29d4 ac3d d306 643e 3a98 88be
000002b0: 2efe 9e3d d88c f63d 693e cebd 2ff5 e9bc
000002c0: ee81 dc3d 4635 5abd 620c 5d3d f5d3 803d
000002d0: cf21 05be 462f 393d 6e6f d7ba 6d3b 30be
000002e0: 4ebf 183e a95d 363e f9e7 09be c4e6 09bd
000002f0: 65ab d73d 907f 59bd 6c68 7b3e bb26 623e
00000300: ff8b afbe 0734 3f3d a966 e73e 5009 1dbe
00000310: 3ec5 29be c514 f2bd 50be 26be eacb 0bbe
00000320: 0a39 02be e7ba 573c 3121 533e c4ef 6c3e
00000330: 3aa1 79be a3fa 45be 578e b9bc a34a 423e
00000340: e944 adba e002 66be a828 123e ee13 c53c
00000350: 1881 c3bd d00f 443e baaf 8bbd ae61 1cbd
00000360: d516 25be 6313 493e fcaa 803e 6ca9 b53d
00000370: ed61 d5be 6b64 c5be 7618 a2bd fcd1 8d3e
00000380: 2eb8 283e 9a96 7a3e ffdf 703e 7ac2 603e
00000390: fdd9 163d aef6 c1be a0db a3be 0f29 12be
000003a0: 8247 3d3e ab38 44bd 0879 30bc 095d 59bc
000003b0: e8fc b63d ba7b b9bd 1a07 88be e602 e6bc
000003c0: f306 bc3b ff37 863e ec13 893c 08f7 08be
000003d0: 4f3a e6bd e8b7 70be 1be6 f3bc cd6b 0ebe
000003e0: 55cb 383e a11b 91bd 0024 5f3d f994 23bc
000003f0: 95da 7d3e 1a44 c8bd 1067 db3d 1a00 243d
0.19559188 -0.040334783 0.245581 0.14955789 0.1889324 0.060773958 0.09897712 0.073724024
0.117840394 0.0015629993 -0.1255449 -0.0005056003 -0.051459786 -0.13835996 -0.19412628 0.12938741
-0.17737362 -0.24065831 -0.034489743 -0.11438769 0.02962282 -0.11716895 0.078839146 -0.25643352
0.2612437 0.06233199 -0.15685949 0.13381924 0.12843122 0.13905573 0.0067467927 -0.07247529
-0.023809059 -0.115145005 -0.0611386 0.056668498 0.16015914 0.080910474 0.18272936 0.0026162644
0.08871665 -0.1511285 -0.29785317 -0.24073446 -0.25157985 0.23837242 0.2398433 0.17424364
0.08191788 0.034881707 0.1473199 -0.24397498 -0.15745474 -0.27018872 0.16702424 0.11559531
0.116400026 -0.16357748 0.14792924 -0.20653266 -0.06813486 -0.19055738 0.27566662 0.1318443
0.30575565 -0.21229118 -0.35448524 -0.24187636 -0.31650713 0.22272882 0.08920748 0.33491305
-0.07037851 -0.03344064 0.12868531 -0.166058 0.09006249 -0.13703907 0.24396418 -0.12704511
0.01814496 0.19849814 0.07219849 -0.06518436 0.2483499 0.18009423 -0.24703336 0.023409871
0.33879748 -0.08157056 0.028170014 -0.29883862 -0.2534115 0.1688483 -0.10153932 -0.34017998
0.13766101 -0.06565174 -0.24408567 0.03951302 -0.18757418 -0.15918815 0.34633213 0.041879587
-0.035889335 8.578133e-05 0.017226176 -0.038018793 0.122413345 -0.2125408 -0.052919958 -0.08726313
-0.09775421 -0.12612359 0.08578966 -0.18551686 -0.1617785 -0.008357856 -0.055420965 -0.08987652
0.258159 -0.010488435 0.23174754 0.20049833 -0.112242214 0.21283528 0.025339786 -0.09247605
-0.11748535 -0.11746378 0.061931737 0.003109229 0.17896955 -0.13040109 0.20494203 -0.30942744
-0.27582705 -0.008178142 0.1132709 0.357202 0.35046715 0.06979971 0.22486706 -0.12463512
-0.21314529 -0.36792737 0.062450465 -0.29272503 0.18878703 0.117722675 0.039566904 -0.076536596
0.017219732 -0.03164954 -0.05364528 -0.11065567 0.03675139 0.14789557 0.08542318 0.15987368
0.0725505 -0.19975404 -0.118599795 0.040558804 0.09114444 -0.092212394 -0.008303783 -0.051255748
-0.21369518 0.08438904 0.22268228 -0.2667864 0.07763325 0.120385826 -0.100704975 -0.028559295
0.107669696 -0.05327346 0.053966887 0.062904276 -0.13001178 0.0452111 -0.0016436407 -0.17210169
0.14916727 0.17809166 -0.13467397 -0.03366734 0.10530738 -0.05310017 0.24551553 0.22085087
-0.34286496 0.046680477 0.4519551 -0.15335584 -0.16579148 -0.11820368 -0.16283536 -0.13652006
-0.12717071 0.01316712 0.2061813 0.23138338 -0.2437791 -0.19333892 -0.02265088 0.18973784
-0.0013219389 -0.22462034 0.14273322 0.024057355 -0.09546107 0.19146657 -0.068206266 -0.038179092
-0.16121991 0.19636302 0.2513045 0.08870205 -0.41676274 -0.38553175 -0.07914822 0.27699268
0.16476509 0.24471512 0.23522948 0.21949187 0.036828984 -0.37883514 -0.32003498 -0.14273475
0.1848431 -0.047905605 -0.010771044 -0.01326681 0.08934957 -0.09056802 -0.26567918 -0.028077554
0.005738133 0.26214597 0.016733132 -0.13375485 -0.1124159 -0.23507655 -0.029772809 -0.1390831
0.18046315 -0.07085348 0.05447769 -0.009984248 0.24790414 -0.09778614 0.10713017 0.04003916

conv1.bias f4 [32]
00000000: 20e5 b1bc c475 b0bd 4745 90bd fc56 20be
00000010: 498b d0bd 8e11 1cbe 19d4 923d 2950 debd
00000020: f455 fcbc b2fa abbc 646e bcbe e304 903c
00000030: 3522 8fbd 6848 053e 0e4a 7ebd f516 aabd
00000040: 92e8 82be 6a1a 71bd 0f2e 27bd f9d3 13be
00000050: 6fa8 5ebe a173 54bd ee0d 38bc 3748 77bd
00000060: 24bc 6abd 9dc9 95bd 7fac 37bd 525e 98be
00000070: 1652 debc b6b5 08bc 58d2 36bc 58c6 84be
-0.0217157 -0.08616212 -0.070444636 -0.15658182 -0.101828165 -0.15241072 0.07169361 -0.10855133
-0.030802704 -0.020993564 -0.3680297 0.017580455 -0.06988946 0.13015902 -0.062082343 -0.0830516
-0.25568062 -0.05886308 -0.04081541 -0.1443633 -0.2174394 -0.051868085 -0.01123379 -0.060371604
-0.05730833 -0.07313845 -0.04484224 -0.2975946 -0.027138751 -0.0083441045 -0.011158548 -0.25932574

conv2.weight f4 [64, 32, 3, 3]
00000000: 6eb6 aebb 1814 fb3d 6b61 2dbd 0af8 d53c
00000010: 73f5 d73d e799 6ebd 844a e9bd 38ca e8bc
00000020: e7ed 37bd 2fb2 453e 32b9 733e 8522 f93b
00000030: c73f cd3d de26 56be a5c4 6dbe e48c dcbd
00000040: 2c0b a2be c2db 16bd 6484 8c3d ae62 6e3e
00000050: 5127 7f3e 6bf8 19bd e2bf 1b3c 83d7 eabc
00000060: 0e30 abbd 4e79 a8bd 1d1e b1be ebfa 09be
00000070: fa47 29be 000f 0dbd 15dc 09be b72d 90bc
00000080: c074 a8be a67d 28be afd1 3dbe 847b ccbe
00000090: 4ea1 25be d172 8bbe 1fbd 6fbe a6bf 41be
000000a0: 35be 81be fb88 56bd 9b1b 19bd c9af 1dbe
000000b0: db5a 39be 75f3 543e 98c1 163e 78ef 353d
000000c0: 601b 8a3d ae75 703d 07d6 453e 6b38 09be
000000d0: 11a5 18be 6aeb f6bb efda edbc 7db4 f8bc
000000e0: 9f01 243c 2fd0 043e 06cb de3c c566 373e
000000f0: 8bf8 b93d 48c3 2d3e 2bd6 fc3d cb48 3b3d
00000100: 9068 1a3e 94dc 47be c292 253e 992c 0abe
00000110: b5c8 dbbd eb52 d93d c4c4 b8bd d2b6 2bbe
00000120: 07a7 463e edc6 4e3e d136 443e 278b 253e
00000130: d8d7 64bc e6de 8bbe 4959 d2bb 07fc 4abe
00000140: eeb1 83be 894b 323e 6ae1 c6bd 9726 aabd
00000150: a11e bcbc fff7 92be 2cdb 5ebd 38f9 f03d
00000160: 1453 c2bd 7c3d 87bd 6ae7 353d 9484 74be
00000170: 824e 40be 694c e13c c0eb adbe a0d3 e3be
00000180: f3b3 55be 895a ffbe 57ea 79be 7e56 4abd
00000190: 7369 d4bd d03f 05bd 300c f2bc af9c 823c
000001a0: 2ad1 8e3d 7c49 a5bd c680 a33b 598d 7ebd
000001b0: 85b1 8bbd 43d0 d63d 5fd2 833c fae8 0b3e
000001c0: ce8e 02bc 8a3e 493d 3501 373e 5d9e e33d
000001d0: 326d 9cbd 7932 103e f9dd 81be c730 67be
000001e0: 3347 3c3c 6127 90be 73d3 51bd f86b 0fbe
000001f0: 31ed 73be 26bd 26bc 4907 c83d 1833 b0bc
00000200: 0479 d73d 7589 79bd 5f3d 4f3d bdb7 463e
00000210: e725 3f3c 4673 53bc bf0d 033d ea0c a2bd
00000220: d2f6 f33c fe41 89bd 02f8 1bbe 8477 3fbe
00000230: 3f20 46be de0a 93be 5c62 a7bd 6652 81bd
00000240: 8f4b d7bc 9877 743d e9c9 f63d 6607 603c
00000250: a590 6c3d ce49 303d 17b0 1c3c c40e 0dbd
00000260: 77fe 11be bfa0 033e 452e 55bd 22b1 62be
00000270: 4aeb f63c 9a56 d9bc 8155 c43d 9d47 0b3b
00000280: d666 0ebe bfcd 233c fa23 1ebd b239 fabd
00000290: 0d4f aebd 9d66 b0bd 4277 f8bc 727c a2bd
000002a0: ac46 45be d7a5 34be fe28 77be f4a4 b43d
000002b0: 26ab 06bd 313c cdbd c18e 34be d882 1bbe
000002c0: 08b2 13be 18b9 46be 3e1e 203d 79a6 59be
000002d0: 65ae d9bd e562 053d e44d 223d 7765 82bc
000002e0: 15ce 83bd 43d2 e3bd 81e3 4abd 4898 4ebd
000002f0: c7e4 78be 74af 233e 33f7 863d df75 c03d
00000300: 189b 3a3e 4126 1a3e c1e4 423e b2b6 0d3e
00000310: be3e 063c 7b17 603d ed96 20bc 9ec8 743d
00000320: 551b b13d b888 bd3d b058 493d e500 d43d
00000330: 08d5 533c 7273 c23b f200 15bd 5e8a 163c
00000340: 3337 87be d65f cabd adca 73bd 6cdc 56be
00000350: fac2 d2bd 6c75 57bc 54ef febd 1a42 bfbd
00000360: 3b83 0cbe 2d0f d9bd 1d9d 0a3e 58b8 15be
00000370: 76b2 17bd e8c6 f3bd cf81 88bd 2e3b 38bd
00000380: 0fa8 6abd cfc0 36be 6277 9dbe 467a 6dbd
00000390: eaf0 1cbe 2c84 5dbe 94c4 6f3d 5657 17be
000003a0: 11aa d2bd 4694 a8bd bf07 74bd 8b17 963d
000003b0: 7e45 01bd feac 04bd cad8 c4bb c96d fb3d
000003c0: 1b96 c53d c365 d1bc 3c2e 463e 88af a3bd
000003d0: e4f9 e1bc 1d90 2ebe b761 04be cd0c b9bd
000003e0: b78d 293d 799e 6bbd 9ad1 43bd 599f 17bc
000003f0: f07c e3bd 8540 693d 11ba a9bd 6d4c 2a3e
-0.005331806 0.12259692 -0.042329233 0.02611925 0.105448626 -0.05825224 -0.11391166 -0.028416738
-0.044904616 0.19306253 0.23801115 0.007602992 0.1002193 -0.20913264 -0.23219545 -0.1076906
-0.31649148 -0.03683067 0.06861189 0.23279831 0.24917342 -0.037590425 0.009506198 -0.028667217
-0.08358775 -0.08226262 -0.34593287 -0.13474624 -0.16531363 -0.034438133 -0.13462861 -0.017599924
-0.32901573 -0.16454181 -0.18537019 -0.39937985 -0.16174814 -0.27236035 -0.23411988 -0.18920764
-0.2534043 -0.05237673 -0.037379842 -0.15399088 -0.18101065 0.20795996 0.14722288 0.04441783
0.067435026 0.058705978 0.19319926 -0.13400428 -0.14906718 -0.0075353878 -0.02903506 -0.030359501
0.010010152 0.1297004 0.027196418 0.17910297 0.09080609 0.16969025 0.12345537 0.045723718
0.1507895 -0.19517738 0.16169265 -0.13493575 -0.10731641 0.106115185 -0.09021905 -0.16768959
0.19399653 0.20193072 0.19161536 0.16166364 -0.013967477 -0.27318496 -0.006419335 -0.19822703
-0.25721687 0.17411627 -0.09710963 -0.08308142 -0.022963824 -0.2870483 -0.054408237 0.11766285
-0.09488502 -0.06603524 0.044410147 -0.238787 -0.18779948 0.027502256 -0.33968925 -0.44497395
-0.20869426 -0.4987376 -0.244058 -0.04939889 -0.10371675 -0.03253156 -0.029546827 0.015943853
0.06973489 -0.08070657 0.004989716 -0.06214652 -0.068209685 0.104889415 0.016091524 0.13663092
-0.007968618 0.049131908 0.17871554 0.1111419 -0.07638015 0.14081754 -0.25364664 -0.22577201
0.011491585 -0.28155044 -0.051227044 -0.1400603 -0.2382095 -0.010176932 0.097670145 -0.021508738
0.10521129 -0.060922105 0.050595637 0.19406028 0.0116667515 -0.012905901 0.03199553 -0.079126194
0.029780779 -0.0670204 -0.15231326 -0.18697935 -0.19348238 -0.28719229 -0.081730574 -0.063145444
-0.026281146 0.059684366 0.1205023 0.013673639 0.05775513 0.043039136 0.009563467 -0.03443791
-0.14257227 0.12854289 -0.05204608 -0.22137883 0.030141491 -0.026530553 0.09586621 0.0021252402
-0.13906416 0.009997784 -0.03860853 -0.12218036 -0.085111715 -0.08613322 -0.030330304 -0.07933892
-0.1926524 -0.17641388 -0.24136731 0.08820525 -0.032878064 -0.10021246 -0.17632581 -0.15186632
-0.14423382 -0.19406545 0.03909134 -0.2125491 -0.10628966 0.032565016 0.039625064 -0.015917523
-0.064357914 -0.111240886 -0.04953337 -0.050438195 -0.24306022 0.15984899 0.06590118 0.09397482
0.18223226 0.15053655 0.19032575 0.13839224 0.00819367 0.054709893 -0.0098016085 0.059761636
0.08647791 0.09254593 0.049156845 0.10351733 0.012929209 0.0059341723 -0.036377855 0.009188263
-0.264093 -0.098815605 -0.05951946 -0.20982522 -0.10291095 -0.013150554 -0.12447992 -0.0933878
-0.13721935 -0.10598598 0.13536496 -0.14621103 -0.037035428 -0.11903173 -0.06665384 -0.044978313
-0.05728918 -0.17846988 -0.30755144 -0.057977937 -0.15326276 -0.21632451 0.05853708 -0.1477941
-0.10286344 -0.08231406 -0.0595777 0.07328709 -0.031560414 -0.03239154 -0.0060072886 0.12276799
0.09647771 -0.02556122 0.19353575 -0.07992464 -0.027584977 -0.17047162 -0.129279 -0.09035645
0.041394915 -0.05752418 -0.047807314 -0.0092543 -0.11107814 0.056946296 -0.082874425 0.16630717

conv2.bias f4 [64]
00000000: 272a 0f3e d709 9bbe eafc 86bc 02a8 553e
00000010: c2fe 83bd 56f9 8cbd 9cd4 3b3c 8bdb f3bd
00000020: 6929 1cbe d4a0 33bb c958 a2bc 1808 6c3e
00000030: fad6 623e 17c2 263e 2f00 06be c9f9 36be
00000040: 4c1b 463e e5d4 143b 5aab 8abe fbc4 a3be
00000050: 912b a5bd a360 863e 5973 c7bd ea30 ebbd
00000060: f937 ed3d f724 963a bedb de3d f29f c4bd
00000070: 1493 a2be e6a1 52be 493b d93d 38ae 90bd
00000080: 6d6f 4a3e 6114 bebd 50e3 63bd b70d 15bd
00000090: 0ac4 8abe 583b 483e 1c4d cabd 7e34 993d
000000a0: 598c 2fbd 6448 0fbe 5782 a33e 20b6 ccbd
000000b0: 0e59 763e 069f a6be 8635 bebe 3c8d 313e
000000c0: 2b9f 5d3d 8a49 b13e 79d1 e53d 0a1d 4a3b
000000d0: f101 05be ba3c c43d 56de 7fbd 93a0 84bd
000000e0: add6 53be 1a6c f63d d693 96be 14b2 cbbd
000000f0: 3331 55be 6b20 4e3d 187f 85bb 5918 b43d
0.13980924 -0.30280945 -0.01647802 0.20864871 -0.064450756 -0.068834946 0.011464264 -0.11907109
-0.15250172 -0.0027409093 -0.019817727 0.23049963 0.2215232 0.16284977 -0.13086008 -0.17868723
0.1934635 0.0022709903 -0.27083856 -0.31986222 -0.0806495 0.26245603 -0.09738798 -0.11483939
0.115829416 0.0011455108 0.10881756 -0.0960082 -0.31752837 -0.20569572 0.10607011 -0.070644796
0.19769068 -0.09281231 -0.055636704 -0.036390033 -0.2710269 0.19553888 -0.09877989 0.07480715
-0.042858455 -0.13992459 0.3193538 -0.09995675 0.24057409 -0.325432 -0.3715021 0.17339033
0.054106873 0.34626418 0.11221594 0.0030840063 -0.12989022 0.09581895 -0.062467895 -0.064759396
-0.20687361 0.120323375 -0.29409665 -0.09946075 -0.2081955 0.050323885 -0.0040739886 0.087937064

conv3.weight f4 [64, 64, 3, 3]
00000000: c4c7 9d3d 617e 173e af7f 153d 09fb 10be
00000010: 761a 62be b400 d33c 97d0 fb3c 05fa 2ebe
00000020: d7a1 8bbd 0f30 cbbd 90e6 babd 628c 3b3e
00000030: fe48 94be 8ec0 6abd 665c 5a3e 6a84 2d3d
00000040: e79c 7cbd 8a59 373e 8f45 32bd adb0 01be
00000050: f1ca bf3c 1dd9 34be f918 2abe 0038 aa3d
00000060: 3c74 24be 275e 1a3d bdb7 d0ba 0172 bbbd
00000070: 2e0a 21be 9559 a03b 18f6 b8bd abd8 eabd
00000080: 946d 2bbe f2f5 2e3c 96b5 28be cb46 52be
00000090: 9b89 483d b450 9bbc 809e a33d dbf3 47bc
000000a0: 9c2e 2d3d 5abf 823d cdd3 093b b1e7 2c3d
000000b0: 0798 983d 6306 3dbe 4809 72bc 9a80 153d
000000c0: eb90 a4be 7000 713b 88ec 0d3e 3826 a23d
000000d0: c3e1 15be 2a7f 01bc a158 7a3c 5ffb 31be
000000e0: b8c8 c23d ad88 923e df93 42be 79fb 52be
000000f0: b1b8 bd3e 877d 743d a60c 93be b62d 0c3c
00000100: f739 a3bd 7116 adbd 410d cb3d 445a b1bc
00000110: 8980 463d 36b1 97bc 4920 8e3d 3c6c 923c
00000120: c0ff 233e e3c4 2f3e 1895 debd a53b ee3d
00000130: 213a ae3d 2f1d 1bbe 52a9 493e 809c fd3d
00000140: 7fd0 fdbd 6819 db3b a750 00be 8c08 e0bc
00000150: 2bbe c3be 2585 33be f7dd 363d a33a 24bb
00000160: 5b62 303e bfee 71be c051 b9bd a907 c3bb
00000170: c74e 293e ca52 dbbd b7c7 07bd af0a f73d
00000180: c13a 3cbe fb34 53be 4919 3c3e 39b4 983c
00000190: 5d0f e4bd ac31 90bc 65a8 8dbd 9f8e 8fbe
000001a0: eb1e 473d bd7d 92be bd88 c5bd 8824 523e
000001b0: 2f0f 4a3e 85b5 fcbc 07dd 1cbe 1405 933c
000001c0: dbaf b6bc 6898 e6bd 4c46 fcbd 5325 943c
000001d0: 3140 2bbd 3cb7 7d3c cc01 b4bc 4da1 8dbd
000001e0: 8212 a93d a2dd 923d 054a 023e c68a 733d
000001f0: 447f 0d3d ca54 0cbe 5416 703d cf19 c9bd
00000200: a660 ce3c 7213 803b 5aba 8e3c 7120 24be
00000210: 6d95 83bd 37c2 fdbc 9a03 273e 2ad6 06be
00000220: 9705 7dbd 7edb 093e 16f0 9cbd 72b7 4cbd
00000230: 4df4 a0bc 8f43 583e 2011 603d f539 9cbe
00000240: 8cd6 023e 7831 fabd 4779 38be ffe9 bbbd
00000250: add6 a8be 7a92 32bf de55 33be 37cf a33d
00000260: 4d09 a8be d60d 2d3e 8f13 283e 5a71 b13e
00000270: 4d11 2ebe 0e6d 983b 47e8 413c 3130 763c
00000280: 1726 dabd 02b2 1ebd c3e7 83bd dbbc 533d
00000290: dff9 1dbd a013 c9bd ead3 cf3d 2aae 353d
000002a0: 46d8 7bbe d002 4bbe 20f2 2a3e 1851 0ebc
000002b0: 4003 dbbc 9fba 67be eb5b b7bd 2aab 3dbe
000002c0: 6b81 32be 929d a8bc f16b 86bd 09a5 6ebe
000002d0: a1f2 053e 5fff 5cbd 6668 553d a99c debc
000002e0: e59d e83c 2d2f 553e 3396 4d3e 0644 e93d
000002f0: f23d b43a 61b2 cb3d 8f1c cebd 7146 adbd
00000300: 0592 943d 8710 64be 35bc 35be d5db bb3d
00000310: 8cf5 dabe e4ba 0abf ba91 bf3c e620 4fbd
00000320: 43a4 4cbd fc22 36be 0437 67be 5964 6c3d
00000330: 6308 30bd 9b44 093e d4a5 b6be 0edb 25be
00000340: 67cf babc 3d1a b03d 6438 5abd c50e 27be
00000350: 270f f8bd 3733 273e e2f2 f2bd 4a94 d1bd
00000360: f528 9a3d c83f 13be 482b 123e 9271 383e
00000370: 20a1 dcbd 8546 8cbe 30b8 c23e 3cf2 79bd
00000380: 128f 74be 4f25 04be 6cad bc3d 2d29 593e
00000390: 524a a0be 0ad9 85bd a3e6 16be dfd7 2b3d
000003a0: 7276 9d3e 6a70 b1bd 4102 2a3e c08a a03d
000003b0: e3e5 4ebe 1238 f43d 1d5e b23a 89b5 f5bd
000003c0: b9b3 253e 364a 293e c51f f7bd 70f0 203e
000003d0: f453 31ba 7cb7 103e e015 823c 9b69 0abe
000003e0: ce60 733d a749 663e 8227 f1bd e31a 2dbe
000003f0: 162b 34be 7d75 1ebe 5093 70bd 91ef ea3c
0.07704118 0.14794303 0.03649872 -0.14158262 -0.22080407 0.025757171 0.030739112 -0.17087562
-0.06817978 -0.09921276 -0.091260076 0.1831527 -0.2896194 -0.05731254 0.2132431 0.042362608
-0.06167307 0.1790525 -0.043523367 -0.12665053 0.0234122 -0.17660947 -0.16611089 0.083114624
-0.16059965 0.037687447 -0.0015923899 -0.09152604 -0.1572654 0.0048934915 -0.09031314 -0.114671074
-0.1674102 0.010678755 -0.1647552 -0.20534818 0.048959356 -0.01895938 0.07989216 -0.012204136
0.04228078 0.06384154 0.0021030784 0.042213146 0.07450872 -0.18459468 -0.014772721 0.036499597
-0.32141814 0.0036773942 0.13859761 0.07917446 -0.14636903 -0.007903853 0.01527992 -0.17381047
0.0951094 0.286199 -0.19001721 -0.20603742 0.3705497 0.059690025 -0.28720587 0.00855582
-0.0797004 -0.08451546 0.09914637 -0.021649487 0.048462424 -0.018517118 0.06939752 0.017873876
0.1601553 0.1716495 -0.10868281 0.1163247 0.08507181 -0.15147851 0.19693497 0.12383366
-0.12393283 0.0066863783 -0.12530766 -0.027347825 -0.38231024 -0.1753126 0.044645276 -0.0025059364
0.1722502 -0.2362623 -0.09048796 -0.005951841 0.16533957 -0.1070915 -0.033149447 0.120625846
-0.18381788 -0.20625679 0.1836902 0.018640624 -0.11135743 -0.01760181 -0.06916884 -0.280385
0.04861347 -0.28611556 -0.096452214 0.20521748 0.19732355 -0.030848274 -0.1531869 0.017946757
-0.022300651 -0.11259538 -0.123180956 0.018084204 -0.041809265 0.015485581 -0.021973513 -0.06915531
0.08255483 0.07171179 0.12723549 0.059458517 0.034545198 -0.1370422 0.058615044 -0.09819376
0.02519257 0.003908568 0.017422844 -0.16028 -0.06424985 -0.030976398 0.16309968 -0.13167635
-0.06177291 0.13462636 -0.0766298 -0.049979635 -0.019647742 0.21119522 0.05470383 -0.30512968
0.12777156 -0.12216467 -0.18015014 -0.091754906 -0.32976285 -0.69754755 -0.17513224 0.079985075
-0.32819596 0.16899809 0.16413711 0.34656793 -0.16998787 0.004651672 0.011835164 0.015026138
-0.10651796 -0.03874398 -0.064406894 0.05169378 -0.038568374 -0.09818196 0.10147841 0.04435555
-0.2459422 -0.19825292 0.16693926 -0.008686326 -0.026734948 -0.22629784 -0.08953079 -0.18522325
-0.17432182 -0.020582948 -0.06563557 -0.23305143 0.13080837 -0.05395448 0.052101515 -0.02717431
0.028395602 0.20818777 0.20076828 0.113899276 0.0013751371 0.099461325 -0.10064041 -0.08460701
0.072544135 -0.2227193 -0.17747577 0.09172789 -0.42765462 -0.5419142 0.023384918 -0.050568484
-0.04996134 -0.17786783 -0.2257958 0.057712886 -0.04297675 0.13405077 -0.35673392 -0.16196844
-0.022803975 0.085987546 -0.053276435 -0.16314228 -0.12112265 0.1632813 -0.118627325 -0.10233362
0.07527343 -0.143798 0.14274323 0.18012074 -0.1077292 -0.27397552 0.3803115 -0.06102203
-0.23882702 -0.12904857 0.09212765 0.21207114 -0.31306702 -0.065355375 -0.14736418 0.041953918
0.3075443 -0.086640194 0.16602422 0.078389645 -0.20204882 0.11924757 0.001360837 -0.11997516
0.1618184 0.16532215 -0.120666064 0.1571672 -0.0006764524 0.14132494 0.015879571 -0.13516848
0.059418492 0.22489034 -0.11775114 -0.16904788 -0.17594561 -0.15474506 -0.05873424 0.028678687

conv3.bias f4 [64]
00000000: feda 5e3e 6601 8c3e 3a29 8a3c e5f1 f93d
00000010: 8f47 bdbd 1081 f4bd c18e b93e 89f9 83be
00000020: 79d4 45be 064b 7bbd 5625 193e d5bd 343d
00000030: df43 80bd ff8d 0e3b f723 743e a9ea 96bd
00000040: e298 7d3e ee43 913e 8b5f 69bd 2776 133e
00000050: c64c e33d fa44 743c 0d3f e53d 4b61 febc
00000060: 9356 51be cf09 eabd ea61 ddbd 36be 2f3e
00000070: dbf1 ad3c 6dd3 f63d 7897 ed38 febe b9bd
00000080: 3c8e 12be c9c9 63bc 4ee4 7ebc 7621 01bd
00000090: eceb aabd e4e2 4a3e 77b9 2cbd ca91 9a3d
000000a0: 6d92 a1bc d8a6 de3d 8a2c e7bd 41dd 87bd
000000b0: 8417 30bd 1ef0 fb3d d461 aa3e 30fe 3bbe
000000c0: 9fd5 80bd d63b acbd 9a4d a4b9 ba70 78bd
000000d0: 0cb3 3bbe 8f8d 46bd 23fe 99bd 40a2 a1bd
000000e0: 9fb7 e83e c6d2 bc3e b329 f53d d635 86bd
000000f0: 17cf 58bc 19ba d63c d202 a23d 7ab0 e53e
0.21763226 0.27344817 0.016865361 0.12204341 -0.09242164 -0.11938679 0.36241725 -0.25776318
-0.19319333 -0.061350845 0.14955649 0.04412635 -0.062629454 0.0021752117 0.23841844 -0.073689766
0.24765351 0.2837214 -0.056975883 0.1440054 0.11098628 0.014909023 0.111936666 -0.031052252
-0.20443182 -0.11427652 -0.10809691 0.17162403 0.02123349 0.12052045 0.00011329254 -0.09069632
-0.1431207 -0.01390309 -0.015557362 -0.03152605 -0.0834578 0.19813114 -0.04216906 0.07547338
-0.019723142 0.10871667 -0.11287792 -0.06633998 -0.042991176 0.12301658 0.33277762 -0.18358684
-0.06290745 -0.0840985 -0.00031338335 -0.06065438 -0.1833002 -0.048474845 -0.07519176 -0.07892275
0.45452592 0.36879557 0.11970844 -0.06553237 -0.013232968 0.026211785 0.07910694 0.44861203

fc1.weight f4 [64, 1024]
00000000: 0fb8 40be 296d f03c b348 243e bd83 1d3e
00000010: f923 15be 2ae8 653b 2edc 37be b72f bc3c
00000020: bc25 3cbd 7205 8d3d 8661 ed3d 0572 aebd
00000030: c661 19bd df16 6e3d bcf0 593e 51e9 7ebe
00000040: d963 213d 5fb8 8cbd bbcc b73d 6661 113d
00000050: acf9 6ebd 242a 333c 9603 af3c 2c14 4b3c
00000060: aba2 8ebd 8d4c f13b 0b89 91bb fef9 283d
00000070: 090a 6e3d 0bfa 3e3d e73f ab3d 77d0 193e
00000080: a5d0 9c3a 13a8 2bbe 7cfb 963c 3366 6d3c
00000090: c9d8 22be e5a2 85be c895 19be 04cf 0cbd
000000a0: 504d 44bb 5069 7fbd 9b7e 883d 5bab 1f3e
000000b0: c412 2b3d 8020 303e 2fba 6a3e 19c0 f93d
000000c0: 68b0 3d3e 7471 093d d69b aa3c 4cb6 b63d
000000d0: 7ba2 b63d 762d 3cbd 8ad1 13be d8c0 acbd
000000e0: 2e9e 26bd e12e c63d 124a 053e 9154 673d
000000f0: 7d20 dfbd e010 bebb 02ae 493e 8f91 c03c
00000100: 81cd 183e abd7 d3bd 05b7 053d daa5 0fbe
00000110: 8bbf 313e a67a 853e 2435 1abe 8aaa a03d
00000120: 8a55 05be bb12 4c3e 1394 aabd 67df 0d3d
00000130: a112 ef3c 1930 d33d 2008 58bd 0b0e 263d
00000140: c1dd 82be eddf 2ebe a2a7 2f3d 8e2e d7bd
00000150: 3496 c6ba d806 cfbd feff b13d 1ccc 803e
00000160: a809 aabd 2967 c1bd 39bd 36bd b268 64bd
00000170: 6f19 1e3d 42e7 273d 560f 083e c223 593e
00000180: f397 dabd c056 47be 8799 4ebe bb3f 98bc
00000190: 0215 7c3e ac09 bb3e 5299 b93e 6069 593e
000001a0: e6bf 5e3d 88ab 4ab9 70cd a0bd 973f b8bd
000001b0: 3cf9 153e 03fe fa3d 944d 32bd a2b7 9b3b
000001c0: 3942 dbbd 56b6 12be 8b40 a2bd 6435 07bd
000001d0: 3273 90be b8dc 66be 2033 97be ee80 393d
000001e0: de50 15be 070b 303c 8e43 85bd efdf 333e
000001f0: 78ba 6abe a733 0d3e 1ac4 46b9 430a bf3a
00000200: 03a2 f23d 3a31 d93d 2b34 e23d 1c3c 9ebc
00000210: eda9 383e cc63 90bd ac75 083e c306 f93d
00000220: e343 603d 02cb bbbc f1ab 8c3d 5e26 3abd
00000230: b4af f5bd 8a83 ae3d 2ff6 cebd a580 dd3d
00000240: 2efa babd 730e 47be 0f1a 79bd c1b7 3abe
00000250: 8026 683e 5c70 88bd e45c 25bd aedf d63d
00000260: 310c cb3c 2702 093e 0087 293e b7b9 e93c
00000270: 2ded 383d c45d 243e 4965 a03e d645 01be
00000280: e4de 8d3c b195 323e fe26 c0bc e884 61bb
00000290: 795b 983d 469a 8a3e 2ef7 2f3c a93f a43d
000002a0: f1bd cfbd f368 8dbe 5b0b a33c 63fd 50bd
000002b0: 006e 92bc 3bfd 0a3d b714 d63b 3a8c 2f3d
000002c0: d32b ddbd 4c5f 96be 2223 63be 2d97 023e
000002d0: 7c8e 6a3e cdbb adbe 8b54 92be 9055 3ebe
000002e0: 956e 373e 5936 5b3e 43c9 053e 7658 50be
000002f0: af15 873d a6d4 cbbd 77a3 8a3d 350c a1bc
00000300: ce12 ddba 2c83 303c 0b7d 57bd 908a dfbb
00000310: 9e0b a6ba bad0 9a3c 9fce 013d 1235 503c
00000320: 8668 813c a245 e3bc bc7e 833c b2d3 563c
00000330: ab33 0cbc 2f1d cabb 8391 823c 8669 8e3c
00000340: 22b2 d0bb c5b9 513c 5c00 07bd 429f 163e
00000350: b2b1 453e 6f38 313e db6f 9dbd b2b8 1d3e
00000360: 99c8 05bc c708 a43e ab6e 3d3e b1a3 863e
00000370: d375 183d 3827 c83c df08 373d 3885 c9bd
00000380: e718 2e3e aefc 2abc 2407 acbb a595 ca3d
00000390: 1a7b 28bd 1750 cdbd 43dd 88bd 05de 803d
000003a0: 78ac 2f3d f0d8 05be f599 583e e691 323e
000003b0: c7c0 ff3b 6804 b6bd eae6 a53e a76c 6d3d
000003c0: f06f 7ebb 407e 58bc b635 b4bc 6ef2 fcbc
000003d0: 98bf edbb ccb2 d1bc e488 80bc a072 e73b
000003e0: 2c62 1c3c e0a8 59bb 50ad 973b fb2b 143b
000003f0: 70b5 8f3c 386f de3b aaaa e53c 3609 86bc
-0.18820213 0.029348927 0.16043358 0.15382285 -0.14564504 0.0035081008 -0.17955086 0.022971971
-0.045934424 0.06885804 0.11590867 -0.08517841 -0.03744676 0.05812728 0.21283239 -0.2489369
0.039401863 -0.068711035 0.08974596 0.035493277 -0.058343574 0.01093534 0.021364015 0.012394946
-0.0696462 0.007363862 -0.0044413856 0.041254036 0.05811504 0.04662518 0.08361798 0.1502093
0.0011964036 -0.16763334 0.018430464 0.014489698 -0.1590301 -0.2610084 -0.14998543 -0.034377113
-0.0029953308 -0.062356293 0.06664773 0.1559271 0.041765943 0.17199898 0.22922586 0.12194843
0.18524325 0.033555463 0.020826261 0.08921489 0.089177094 -0.045941792 -0.14435402 -0.084352195
-0.040678196 0.0967691 0.13016537 0.056477133 -0.108948685 -0.0058003515 0.19695285 0.023506908
0.14922144 -0.1034387 0.032645244 -0.14028111 0.17358224 0.26070136 -0.15059334 0.07845028
-0.13020912 0.1992902 -0.08329024 0.03463688 0.029183688 0.10311908 -0.052742124 0.040540736
-0.2555981 -0.17077608 0.042884476 -0.105069265 -0.0015150965 -0.10108727 0.08691405 0.25155723
-0.08302623 -0.09443504 -0.04461405 -0.055763908 0.038598474 0.04099203 0.132871 0.21205047
-0.10673513 -0.19466686 -0.20175754 -0.018585077 0.24617389 0.36530817 0.36249787 0.21231604
0.054382227 -0.00019328122 -0.07851684 -0.08996504 0.14645857 0.1225548 -0.043531016 0.0047521153
-0.1070599 -0.14327368 -0.07922467 -0.0330099 -0.28212887 -0.22545135 -0.29531193 0.045288973
-0.1458163 0.010744817 -0.06507026 0.17565893 -0.22922695 0.13789235 -0.00018955805 0.0014575202
0.118473075 0.10605092 0.110451065 -0.019315772 0.18033572 -0.07050285 0.13326138 0.12159493
0.05475224 -0.02292395 0.06868733 -0.045446746 -0.11996403 0.08521183 -0.101055495 0.108155526
-0.09129749 -0.19439106 -0.060815867 -0.18234159 0.22670937 -0.06662056 -0.04037179 0.10491882
0.024786087 0.13379727 0.16555405 0.028530939 0.045148063 0.16051394 0.31327274 -0.12624297
0.017318197 0.17439915 -0.023456093 -0.0034411494 0.07439322 0.27070826 0.010740085 0.08019955
-0.1014365 -0.27619132 0.019902876 -0.0510229 -0.017874718 0.033932906 0.006533231 0.04285834
-0.107993744 -0.2936958 -0.22181371 0.12752981 0.22905916 -0.33932343 -0.28580126 -0.18587327
0.17913277 0.2140745 0.13065057 -0.20346245 0.06595933 -0.09952669 0.0676946 -0.019659141
-0.0016866566 0.010773461 -0.052609485 -0.006821938 -0.0012668257 0.018898357 0.03169119 0.012707965
0.015796911 -0.027743164 0.016051643 0.0131119955 -0.0085572405 -0.0061680297 0.015938526 0.017384302
-0.0063688913 0.012800639 -0.032959327 0.1470919 0.19306067 0.17306684 -0.0768735 0.15402487
-0.008165502 0.32037947 0.18499248 0.26296762 0.03722174 0.024432763 0.044686195 -0.098398626
0.17001687 -0.01043622 -0.0052498747 0.09891824 -0.041133024 -0.100250416 -0.06682827 0.06292347
0.04288909 -0.13071036 0.2115248 0.17438468 0.0078049633 -0.08887559 0.32402736 0.057964947
-0.0038824044 -0.013213694 -0.021998268 -0.030877318 -0.007255506 -0.025597952 -0.015690275 0.007063225
0.00954489 -0.003321223 0.0046288148 0.0022609222 0.01754257 0.0067881607 0.02803548 -0.016361814

fc1.bias f4 [64]
00000000: acc5 323e ebc7 9a3c 0438 4fbd 861e 8ebc
00000010: 5c13 9c3b 1130 84bc 2425 3b3e bbaf afbc
00000020: 92c2 04bd cf29 853d d781 453e 7ccf 813e
00000030: bd1f 7bbe bcee 00bc 879c 883d bd4a 6c3d
00000040: 0a35 12bc 321b 1cbd 2935 8e3e eb0c 97bd
00000050: 0f68 23bc 5bba 143e 795f 0ebd 6059 8c3c
00000060: b666 c03c a6d8 8f3e 52ea 62bd 5615 573e
00000070: e4f1 59be aa6c 1dbe 291f f2bc d4d6 82bd
00000080: fc7d a53d 0fd6 89bc 0cc0 72bc a6fd 4a3e
00000090: 6565 08bd 1ef4 b83d e543 01bd db66 84bc
000000a0: 082a e1bc c981 01bd 1ae9 2abd 39d0 24bd
000000b0: 45e9 a5bc 3f31 103c 3cf5 a0bc 3bed 62bd
000000c0: 1b53 84bc 74df 623e ec3e 36bd 689f 533e
000000d0: f536 b33a 6e08 e93d baf9 a0bd bb68 a93d
000000e0: 1dbf 5a3e 5c1e 973e 521b 923a 012d 0abd
000000f0: 9e06 d5bc b3c5 183e 4dab dc3b fc09 933d
0.17458218 0.018894156 -0.05059053 -0.01734854 0.00476305 -0.016136201 0.18275887 -0.0214461
-0.03241212 0.06502115 0.19287811 0.2535361 -0.24523826 -0.007869419 0.0667048 0.057688463
-0.008923778 -0.038111873 0.27774933 -0.07375511 -0.00997354 0.14524214 -0.03475902 0.017132461
0.023486476 0.28094977 -0.055399247 0.21004233 -0.2128368 -0.15373483 -0.029555874 -0.063886315
0.0808067 -0.016825704 -0.014816295 0.19823322 -0.033299822 0.09030937 -0.03155889 -0.016162327
-0.027485862 -0.031617913 -0.04172621 -0.04023764 -0.020252833 0.008800804 -0.019648187 -0.05540202
-0.016152909 0.22155553 -0.0444936 0.20666277 0.0013672995 0.11378561 -0.078601316 0.08271929
0.21361966 0.2951535 0.0011147058 -0.033734325 -0.026004132 0.14919166 0.006734288 0.07179639

fc2.weight f4 [10, 64]
00000000: 30b4 fc3d 79cb 82bd e6c9 de3b 183b a6bd
00000010: 4d56 33bd 7d6e d13c 17c7 99be 24cb 673c
00000020: eb2d 56bd 559e a9be cc0a 273c 2dd3 3e3e
00000030: cde3 ac3d ba78 8dbd f84c a1bb 5a48 c63c
00000040: d435 d8bb f461 5abd 54c5 89be b35e 83bc
00000050: c969 27bc cbee 73be bfb0 803d 005b 403e
00000060: 016a 953c 446f 94be 647d 513e e12f 963e
00000070: fdba ddbc a209 11be 692f 05be 1230 78bc
00000080: 7235 88be fd91 ff3d f56f ea3d 8ea4 0abd
00000090: 4d89 59bc babe a5bd de99 423b ad3c 873c
000000a0: 6053 b5bd db55 00be c1e0 d2bd 3656 f23d
000000b0: baac f0bd ae5d 6ebd 38f1 e23c 2eb7 81be
000000c0: 41bb d4bd 3df0 4fbd e823 b73d bab9 853e
000000d0: cff4 4d3c 2247 17be 7480 883b 3e4f 613e
000000e0: 8e30 debc 34f2 11ba 48a8 d33d 607d 8bbd
000000f0: 63d6 52bb 2c7b ba3d c7a4 23bd 2a38 683d
00000100: 7598 283e 284a a7be e099 cebd c1f5 a8bd
00000110: 3418 ec3d bc27 2abc 1a99 aa3c c7e3 ca3c
00000120: 2cfb 503e bf2f 79be 9344 c6be 2a59 7fbe
00000130: 3281 593e 004a 40bd 61e4 9d3d 440e b5bd
00000140: c8ac cdbc 1f09 293d bd14 c7be c7f7 2b3c
00000150: 2019 d83d 6b1f f1bd a62f ec3d b7ec 0e3e
00000160: c457 b8bd 0cd3 91be e973 b7bd 7b17 b4be
00000170: 5dfc 553e de72 393e 139a ff3c dcb4 f7bc
00000180: 55a1 733b f230 d0ba 5637 87bd 893c ccbe
00000190: be33 383d a923 d13d 2b68 813c 7466 21bd
000001a0: 0ffc 833d cb90 1a3d 1e48 8bbd 579c 1b3e
000001b0: 633f 683d b906 eabc a8bf 823d c28f 3b3e
000001c0: 39bc 5ebd 98d5 39be 737e 223d 4d0a 983d
000001d0: 8add 273d a7ee 3bbe 821b 4b3e 5e47 89bd
000001e0: 1fa9 b43c aa81 88be d11e 38bd 20ac a73d
000001f0: 8886 ebbd 20a4 ad3c 46d4 53bc fc89 c8bd
00000200: 4062 6ebe 2ba6 40bd c21a 30bc f7e5 38bd
00000210: 794b d8bd 809d 30bc c1e9 80bd f6c1 953d
00000220: be43 4fbe 0c88 d33c f84e 363e f839 29be
00000230: 998a 93bd 9457 d73d 096a 1e3b 712d b4bd
00000240: dd08 d03c 777b b9bd f507 00be 128f 8cbd
00000250: 4532 22bd ea0b 4cbd dfc8 b73d b73b 023e
00000260: 93cf 983d 1564 ff3d d523 cfbd 032c 37bd
00000270: 6035 f53d 0c4e 4e3c 0374 a9bd c157 96bc
00000280: b17a 003e 274d 613d 2f12 57bc b4e7 303e
00000290: 1395 91bd ee02 9dbe a860 4bbd 6130 513c
000002a0: faa6 ecbd e78e 5dbe 331d 8e3d 3ae7 6f3c
000002b0: 9eb0 813c 02e3 713d 6ad9 cdbd d8aa 343e
000002c0: 8100 683d baea a7bd bc34 723d b463 d93c
000002d0: 65e2 f3bd 62e9 fbbd 34a8 0cbe f43b 263e
000002e0: 0633 27be c660 1ebe 688d ebbd fae3 8e3c
000002f0: 8c34 7abb e703 33be 9164 c83d 47c1 153e
00000300: 7ec1 32be 7a6b 8e3c 1493 553d 04c8 ae3d
00000310: ed64 783d 9b1b ba3d 705c 273e 39d7 0b3d
00000320: c7c5 45be 5ccd c3bd 26f9 2e3e ecd7 36be
00000330: 6d2c 663d d94e c6bd c137 103d 4e76 383e
00000340: 69ef 5f3d 0136 05bd 2ff5 c0bc 6570 c0bd
00000350: 15eb 22bc 0862 07be fb1c b53d 67d7 3f3c
00000360: 6b38 d9bc 9f0f fc3d 32d2 d9bd b2de 00be
00000370: 0bdc 97be b654 873d 4202 883d d15d e6bd
00000380: 0930 ef3c 14fa e23c cc76 a1bc 8ebc d5bd
00000390: 025d 8c3d dca2 bfbd f6a8 ac3c 71a4 203d
000003a0: 653e a83c fea5 2bbd 972e df3d 6e82 873d
000003b0: 82c7 3b3d c328 023e bae3 a2bd 4caa 2abe
000003c0: 6316 79bd 4252 e9bd 0231 88bd 66d7 623d
000003d0: f740 903d 8176 c73c 9a74 08be 62b0 58bd
000003e0: 3bec a4bd e2d1 d53b afc0 1abd a52f b23d
000003f0: 3dc9 ea3c f64b c63d 9783 6cbc 74f5 91bd
0.123390555 -0.063864656 0.0067989705 -0.0811674 -0.043783475 0.02556538 -0.30034706 0.014147554
-0.052289885 -0.3312861 0.010195445 0.18635245 0.08441887 -0.069077924 -0.0049225055 0.024204422
-0.0065982137 -0.05331607 -0.26908362 -0.016036367 -0.010218092 -0.23821561 0.06283712 0.18784714
0.018239023 -0.2899114 0.20457989 0.29333404 -0.027066702 -0.14163831 -0.13006367 -0.01514818
-0.26603276 0.12479017 0.11447135 -0.033848338 -0.013277364 -0.08093019 0.0029693763 0.016508425
-0.08853793 -0.12532751 -0.10296775 0.1183285 -0.11751695 -0.05819481 0.027702913 -0.25335068
-0.10387278 -0.05076622 0.089423954 0.2611826 0.012570574 -0.14773229 0.0041657034 0.22002885
-0.027122762 -0.0005567402 0.103348315 -0.06811023 -0.0032171241 0.091055244 -0.039952066 0.056694187
0.16464408 -0.32673764 -0.10087943 -0.08249999 0.11528054 -0.01038545 0.020824958 0.024766816
0.20408314 -0.2433462 -0.38724193 -0.24936357 0.2124069 -0.046945572 0.077095754 -0.088406116
-0.025106803 0.041268464 -0.3888301 0.010496086 0.10551667 -0.117735706 0.11532526 0.13957487
-0.09001115 -0.28481328 -0.08957655 -0.35174164 0.2089705 0.18110225 0.031201398 -0.030237608
0.0037175019 -0.0015883727 -0.06602351 -0.39889935 0.04497122 0.1021188 0.015796741 -0.039404348
0.06444561 0.03773574 -0.06800865 0.15196358 0.056701075 -0.028567659 0.06384212 0.18316558
-0.054378722 -0.18147886 0.039671373 0.0742384 0.04098276 -0.18352757 0.19834712 -0.06703065
0.0220533 -0.26661426 -0.044951264 0.08187127 -0.11500269 0.021196425 -0.012929028 -0.097919434
-0.23279667 -0.04703347 -0.010748567 -0.045141187 -0.1056127 -0.010779738 -0.06294585 0.07312386
-0.20240685 0.025821708 0.17803562 -0.1652602 -0.0720417 0.10514751 0.0024172089 -0.0879773
0.025394851 -0.09056752 -0.12503035 -0.06863226 -0.039598722 -0.04981605 0.0897386 0.12718092
0.07461467 0.12470261 -0.10114256 -0.044719707 0.11973071 0.01259185 -0.082740806 -0.018352391
0.12546803 0.05500522 -0.013126894 0.17275888 -0.07108512 -0.30666298 -0.049652725 0.012767882
-0.11555286 -0.21636544 0.06939163 0.014642531 0.015831288 0.059054382 -0.10051234 0.17643297
0.056641106 -0.081990674 0.059132323 0.0265368 -0.11908416 -0.123003736 -0.1373604 0.16233808
-0.16328058 -0.15466604 -0.115015805 0.017442692 -0.0038178293 -0.17481957 0.097848065 0.1462451
-0.17456624 0.017385233 0.052142218 0.08534244 0.060643125 0.090872966 0.16343856 0.0341408
-0.19313727 -0.095606536 0.1708723 -0.17855805 0.05619471 -0.09683008 0.03520942 0.1801388
0.05467168 -0.032522205 -0.023554413 -0.093964376 -0.009943743 -0.1322099 0.08843418 0.011709071
-0.02651616 0.12307667 -0.10635795 -0.12584952 -0.29660067 0.06607954 0.06641056 -0.11248363
0.02919771 0.027707137 -0.019709967 -0.104363546 0.06853677 -0.09357235 0.02107666 0.039219324
0.020537565 -0.04190635 0.10897558 0.06616674 0.045844562 0.12710862 -0.07953592 -0.16666526
-0.060812365 -0.113926426 -0.066499725 0.0553812 0.07043641 0.0243485 -0.1332573 -0.052902587
-0.0805287 0.006525264 -0.037781414 0.08700494 0.028660411 0.09682457 -0.01443567 -0.071268946

fc2.bias f4 [10]
00000000: d570 123e 5ca4 c8be dc00 31bd b523 383e
00000010: de4c 983e c0ca a23d f1af 10bd 65a7 d53c
00000020: 2db4 ff3d 187d 8fbd
0.14300855 -0.39187896 -0.04321371 0.17982371 0.29746145 0.07948828 -0.03532404 0.026080796
0.12485538 -0.070062816
